…
7   anold-chiari-malformation   3240
8                     m-magna   3240
9          intracranial-tumor   3240
10              vein-of-galen   3240
11              hydracenphaly   3240
12          holoprosencephaly   3240
13               polencephaly   3198
14      cerebellah-hypoplasia   3193
15    severe-ventriculomegaly   3131
Model: "functional"
┌─────────────────────────────────┬────────────────────────┬───────────────┐
│ Layer (type)                    │ Output Shape           │       Param # │
├─────────────────────────────────┼────────────────────────┼───────────────┤
│ input_layer (InputLayer)        │ (None, 64, 64, 1)      │             0 │
├─────────────────────────────────┼────────────────────────┼───────────────┤
│ separable_conv2d                │ (None, 62, 62, 32)     │            73 │
│ (SeparableConv2D)               │                        │               │
├─────────────────────────────────┼────────────────────────┼───────────────┤
│ leaky_re_lu (LeakyReLU)         │ (None, 62, 62, 32)     │             0 │
├─────────────────────────────────┼────────────────────────┼───────────────┤
│ max_pooling2d (MaxPooling2D)    │ (None, 31, 31, 32)     │             0 │
├─────────────────────────────────┼────────────────────────┼───────────────┤
│ separable_conv2d_1              │ (None, 29, 29, 64)     │         2,400 │
│ (SeparableConv2D)               │                        │               │
├─────────────────────────────────┼────────────────────────┼───────────────┤
│ leaky_re_lu_1 (LeakyReLU)       │ (None, 29, 29, 64)     │             0 │
├─────────────────────────────────┼────────────────────────┼───────────────┤
│ max_pooling2d_1 (MaxPooling2D)  │ (None, 14, 14, 64)     │             0 │
├─────────────────────────────────┼────────────────────────┼───────────────┤
│ separable_conv2d_2              │ (None, 12, 12, 128)    │         8,896 │
│ (SeparableConv2D)               │                        │               │
├─────────────────────────────────┼────────────────────────┼───────────────┤
│ leaky_re_lu_2 (LeakyReLU)       │ (None, 12, 12, 128)    │             0 │
├─────────────────────────────────┼────────────────────────┼───────────────┤
│ max_pooling2d_2 (MaxPooling2D)  │ (None, 6, 6, 128)      │             0 │
├─────────────────────────────────┼────────────────────────┼───────────────┤
│ flatten (Flatten)               │ (None, 4608)           │             0 │
├─────────────────────────────────┼────────────────────────┼───────────────┤
│ dense (Dense)                   │ (None, 128)            │       589,952 │
├─────────────────────────────────┼────────────────────────┼───────────────┤
│ leaky_re_lu_3 (LeakyReLU)       │ (None, 128)            │             0 │
├─────────────────────────────────┼────────────────────────┼───────────────┤
│ dropout (Dropout)               │ (None, 128)            │             0 │
├─────────────────────────────────┼────────────────────────┼───────────────┤
│ dense_1 (Dense)                 │ (None, 64)             │         8,256 │
├─────────────────────────────────┼────────────────────────┼───────────────┤
│ leaky_re_lu_4 (LeakyReLU)       │ (None, 64)             │             0 │
├─────────────────────────────────┼────────────────────────┼───────────────┤
│ dropout_1 (Dropout)             │ (None, 64)             │             0 │
├─────────────────────────────────┼────────────────────────┼───────────────┤
│ dense_2 (Dense)                 │ (None, 32)             │         2,080 │
├─────────────────────────────────┼────────────────────────┼───────────────┤
│ leaky_re_lu_5 (LeakyReLU)       │ (None, 32)             │             0 │
├─────────────────────────────────┼────────────────────────┼───────────────┤
│ dropout_2 (Dropout)             │ (None, 32)             │             0 │
├─────────────────────────────────┼────────────────────────┼───────────────┤
│ dense_3 (Dense)                 │ (None, 16)             │           528 │
└─────────────────────────────────┴────────────────────────┴───────────────┘
 Total params: 612,185 (2.34 MB)
 Trainable params: 612,185 (2.34 MB)
 Non-trainable params: 0 (0.00 B)
Epoch 1/50
1783/1783 ━━━━━━━━━━━━━━━━━━━━ 153s 74ms/step - accuracy: 0.1566 - loss: 2.5796 - val_accuracy: 0.4041 - val_loss: 1.8187 - learning_rate: 0.0010
Epoch 2/50
1783/1783 ━━━━━━━━━━━━━━━━━━━━ 131s 74ms/step - accuracy: 0.4217 - loss: 1.7448 - val_accuracy: 0.4922 - val_loss: 1.4794 - learning_rate: 0.0010
…
